saved_files/ckpt/nyc4/a2c_gnn.pth (torch, 68326 bytes, 42 tensors)

actor.conv1.weight f4 [21, 21]
0.32575485 0.48493418 -0.011936287 -0.10426773 0.6479572 0.52486646 -0.107310265 -0.20449784
0.05814576 0.48917818 0.06488695 -0.18199782 -0.14217414 -0.011046726 0.55357 0.20924044
0.29747307 0.08022662 -0.092490874 0.009358736 -0.036375735 0.04412082 0.16228738 -0.20629475
0.23431315 -0.08908975 -0.19233665 0.3661328 -0.32550025 0.0467475 0.18403178 0.101921536
-0.116015956 0.23982653 0.36514708 -0.019130113 0.4263008 -0.12861845 -0.011980258 0.47641918
0.3210373 0.10243658 0.09595907 0.0024878322 -0.018337157 -0.3568981 0.12586325 0.3516503
-0.10912831 -0.29257727 -0.09844373 0.33577573 -0.30977237 0.33171514 0.15766644 -0.2891014
0.17622206 0.2668997 -0.27323362 0.33115628 0.48608252 -0.013953072 0.41329175 0.11108444
0.41241202 -0.14857118 0.15871477 0.22986062 0.039365847 0.029411042 0.06276526 -0.33986762
0.58733666 0.3356666 0.2308739 0.12228594 -0.3272135 0.38188645 0.3991421 -0.019937757
-0.10321052 -0.020406157 -0.06562193 0.15493026 -0.3776025 -0.07824215 0.3412793 -0.37102664
0.13527963 0.44043836 -0.16135606 -0.10415883 -0.28335482 -0.09739128 -0.21585388 -0.22392596
-0.2898171 -0.087265626 0.18199496 0.38211283 0.10964127 0.5481034 0.29743305 -0.0028772024
0.18165621 -0.15526482 0.59887415 -0.17359698 -0.02867031 0.5463699 0.082970336 -0.043535925
-0.3315608 0.016467568 0.06589349 0.27064657 -0.2117648 0.07505795 -0.24951689 -0.02986382
0.54384524 0.12143189 0.14651398 0.46753982 0.2719472 0.37698454 -0.31584826 0.32457614
0.20688067 0.009256677 0.06965748 0.2621299 -0.001623098 -0.20359652 -0.014375892 0.5987878
0.18319805 0.29808503 -0.19265716 -0.116447985 0.091849744 0.08698996 -0.36059022 0.019778091
0.32954445 -0.35239068 0.3610826 0.29311305 0.4238291 -0.04634942 -0.29793978 0.34445038
0.5749838 -0.18776198 -0.08249689 0.00856351 0.35810775 -0.3274173 0.14301984 -0.14922026
-0.08750367 -0.009064199 0.016969398 0.17624934 0.016077977 0.22710356 0.35937023 0.36507875
0.2912604 0.26537502 -0.10833061 -0.19900885 0.48210925 -0.13732255 0.34240395 -0.08495812
0.01917472 -0.012347245 0.010562638 -0.27488706 -0.31840238 -0.13116853 0.4606559 0.20078574
-0.37530813 0.009271752 0.32517272 -0.029568767 0.21659221 -0.07062219 -0.06437663 0.30687022
0.2581046 -0.0010136769 0.42937562 0.29823783 0.22653854 0.103438556 0.11324185 -0.1824129
0.29550993 0.06993836 -0.34472477 0.49843186 0.5038755 0.0067180702 0.33227903 0.29928777
0.1419116 -0.103975266 -0.07032387 0.6352491 0.11182824 0.14762193 0.00011076587 0.13960929
0.048931878 0.011703253 -0.07162376 0.6585284 0.06313915 0.10116726 -0.35304376 0.25279346
0.40422124 -0.016050797 0.12947854 0.40046623 0.22464225 -0.16882503 -0.018005967 0.35336408
0.28240338 -0.33399004 -0.32031295 -0.16063526 -0.29023558 0.2282459 -0.20772545 -0.053099845
-0.0007588519 -0.10997347 -0.08187663 0.119272485 -0.21027748 -0.023706356 0.07424876 -0.29067498
0.4862283 -0.09804539 -0.089601405 0.15439712 -0.33044162 0.21044298 0.2852106 0.09923904
00000000: 57c9 a63e 4b49 f83e 6b90 43bc 528a d5bd
00000010: 86e0 253f a65d 063f 7cc5 dbbd e267 51be
00000020: 402a 6e3d 9075 fa3e 73e3 843d a35d 3abe
00000030: 1996 11be 54fd 34bc c3b6 0d3f 2043 563e
00000040: 644e 983e db4d a43d db6b bdbd 6255 193c
00000050: b9fe 14bd 08b8 343d aa2e 263e ee3e 53be
00000060: c9ef 6f3e b074 b6bd e6f3 44be c275 bb3e
00000070: f8a7 a6be 4e7a 3f3d d472 3c3e 3dbc d03d
00000080: c699 edbd 1695 753e 8ff4 ba3e c1b6 9cbc
00000090: 1944 da3e 8eb4 03be d848 44bc 37ed f33e
000000a0: 005f a43e 45ca d13d 3086 c43d e60a 233b
000000b0: ce37 96bc 59bb b6be 4ce2 003e 820b b43e
000000c0: aa7e dfbd b0cc 95be de9c c9bd ccea ab3e
000000d0: 7c9a 9ebe 91d6 a93e 5073 213e 1905 94be
000000e0: 8e73 343e 14a7 883e 47e5 8bbe 518d a93e
000000f0: cfdf f83e 6d9b 64bc fa9a d33e 3d80 e33d
00000100: ab27 d33e 0b23 18be 2086 223e 9560 6b3e
00000110: 153e 213d 6def f03c 138b 803d 2103 aebe
00000120: b25b 163f 7edc ab3e 356a 6c3e 0d71 fa3d
00000130: 8788 a7be 9f86 c33e 5a5c cc3e 8254 a3bc
00000140: 0a60 d3bd d02a a7bc ca64 86bd 0aa6 1e3e
00000150: 1d55 c1be 6c3d a0bd 29bc ae3e 34f7 bdbe
00000160: be86 0a3e 2381 e13e 863a 25be 3a51 d5bd
00000170: e213 91be 1475 c7bd cd08 5dbe d94c 65be
00000180: e862 94be 52b8 b2bd e35c 3a3e 4ba4 c33e
00000190: 9a8b e03d 8150 0c3f 2549 983e 728f 3cbb
000001a0: 1604 3a3e befd 1ebe d14f 193f 68c3 31be
000001b0: ffdd eabc e6de 0b3f 5aec a93d ba52 32bd
000001c0: 56c2 a9be fee6 863c 2bf3 863d 3092 8a3e
000001d0: dfd8 58be fcb7 993d 5b81 7fbe f8a4 f4bc
000001e0: 7139 0b3f 48b1 f83d c307 163e 6161 ef3e
000001f0: aa3c 8b3e 1e04 c13e ddb6 a1be d82e a63e
00000200: 87d8 533e 51a9 173c 95a8 8e3d e435 863e
00000210: 22be d4ba 9b7b 50be dc88 6bbc 284a 193f
00000220: 4598 3b3e 9a9e 983e eb47 45be 487c eebd
00000230: b81b bc3d cb27 b23d 489f b8be aa05 a23c
00000240: 0dba a83e 8d6c b4be d2df b83e ea12 963e
00000250: 2100 d93e e4d8 3dbd 908b 98be cd5b b03e
00000260: 2332 133f ad44 40be 21f4 a8bd f74d 0c3c
00000270: e659 b73e 3ea3 a7be cb73 123e 32cd 18be
00000280: 2035 b3bd 0282 14bc 6803 8b3c b57a 343e
00000290: f6b5 833c d68d 683e 60ff b73e 9aeb ba3e
000002a0: 1520 953e 3cdf 873e 70dc ddbd fac8 4bbe
000002b0: 06d7 f63e 489e 0cbe 924f af3e 86fe adbd
000002c0: 4d14 9d3c 194c 4abc ea0e 2d3c ffbd 8cbe
000002d0: a305 a3be 0b51 06be 17db eb3e c79a 4d3e
000002e0: 6328 c0be 8ce8 173c 0a7d a63e 333a f2bc
000002f0: 59ca 5d3e 5ea2 90bd e5d7 83bd 181e 9d3e
00000300: 4926 843e 5add 84ba 1fd7 db3e a1b2 983e
00000310: b8f9 673e 98d7 d33d 58eb e73d 72ca 3abe
00000320: 144d 973e d83b 8f3d c47f b0be 7632 ff3e
00000330: fcfd 003f 4223 dc3b 7a20 aa3e 3f3c 993e
00000340: 4651 113e fcf0 d4bd f605 90bd af9f 223f
00000350: 3406 e53d 342a 173e f94a e838 bdf5 0e3e
00000360: cb6c 483d 00bf 3f3c 7aaf 92bd 5195 283f
00000370: 194f 813d c830 cf3d 27c2 b4be 256e 813e
00000380: 16f6 ce3e f67c 83bc 0696 043e e909 cd3e
00000390: 9e08 663e 78e0 2cbe 4081 93bc 23ec b43e
000003a0: 2d97 903e be00 abbe 0f00 a4be 927d 24be
000003b0: c299 94be 4bb9 693e fbb5 54be 397f 59bd
000003c0: b0ed 46ba c539 e1bd efae a7bd 2245 f43d
000003d0: fb52 57be d533 c2bc bc0f 983d 5ad3 94be
000003e0: eaf2 f83e 05cc c8bd f180 b7bd 471a 1e3e
000003f0: a52f a9be 5d7e 573e 2007 923e d63d cb3d

actor.conv1.bias f4 [21]
0.0 0.16025317 0.0 1.3620774e-05 0.18860278 0.11996339 0.047629964 0.0
0.0 0.15755813 0.0 -0.019723626 0.0 -0.009295575 0.144239 0.1751777
0.0 0.18741462 0.1054141 -0.0047550243 0.09721871
00000000: 0000 0000 6819 243e 0000 0000 c784 6437
00000010: 1621 413e 5eaf f53d a317 433d 0000 0000
00000020: 0000 0000 eb56 213e 0000 0000 7193 a1bc
00000030: 0000 0000 784c 18bc 63b3 133e c861 333e
00000040: 0000 0000 9ee9 3f3e 59e3 d73d 09d0 9bbb
00000050: 9a1a c73d

actor.lin1.weight f4 [32, 21]
-0.20158948 -0.028444475 0.15267001 -0.18487842 0.039184596 0.027614173 0.115302615 0.07788973
-0.28025496 -0.13942704 -0.21322896 -0.0008537105 0.2030866 0.05622044 0.18327297 0.15860936
-0.06186784 -0.07066774 -0.013012414 -0.21428663 -0.2435173 0.09520939 -0.01989234 -0.024546694
-0.20347172 0.14269316 -0.048723422 -0.01928435 0.03193284 -0.20243198 -0.11828439 0.060943466
-0.2085269 0.11885141 -0.087844364 -0.19736189 -0.15696643 0.20578597 -0.12326079 -0.061844733
0.098413974 0.12735263 -0.1529266 0.11691448 0.0449835 -0.12404377 0.04861697 -0.19768026
-0.20130971 -0.2016807 0.046538774 -0.124455854 -0.10252678 0.16015092 -0.13477415 -0.062314384
-0.15256682 -0.17852494 0.08942646 0.081604406 -0.18391813 -0.21283974 0.008967408 -0.14264888
0.046840798 0.1664685 -0.030651316 0.058696434 -0.00586094 -0.1644162 0.06614056 0.07316189
-0.07173633 0.06323749 -0.003139551 -0.112685055 0.1908254 -0.10846717 -0.13211267 0.1667576
-0.15256132 -0.14905858 -0.16013066 0.05877565 -0.22898196 0.15225726 -0.19477814 -0.09889397
-0.19894415 0.06020067 0.04159262 0.04758087 0.18866825 0.0020470018 -0.21996015 0.10696706
-0.17823799 0.005235193 -0.047095004 0.14543171 -0.006211471 -0.076893955 -0.102978654 0.062488332
-0.027617387 0.054903556 -0.20426996 -0.11777147 0.1958025 -0.118414074 0.17292635 -0.16585207
-0.19928344 -0.1637732 0.0763629 0.17242141 -0.09651414 0.04524403 0.026242739 -0.20487761
-0.042678326 0.18342538 -0.054770168 0.20834665 0.19900954 -0.12356113 0.2979751 0.24957535
-0.018806504 0.32635185 0.27667478 0.03292946 0.065210015 0.07447259 0.10560451 0.335148
0.3353346 -0.16979724 0.048628088 0.21230942 0.17266451 -0.07400237 0.23407423 0.17417672
0.10501324 0.16626674 0.15535071 0.3359567 0.37131292 0.30679467 0.18072687 0.35168847
0.296752 0.09615531 0.36235365 0.3399757 0.31638044 0.16070372 -0.0728436 0.19024502
-0.07288139 0.37172526 0.34054103 0.005596699 -0.04911211 0.30751297 0.14017327 0.25508708
0.2610446 0.07885213 0.04876477 0.016347278 0.3655296 0.301944 0.026398413 0.33591425
0.1209436 0.28820384 0.2559193 0.08390891 -0.008141296 -0.14758298 0.12470171 0.18082654
0.017651372 -0.041745096 0.25394696 -0.0965664 0.072717324 -0.06387743 -0.18238182 -0.1477044
0.04669124 0.18748298 -0.028332375 0.19759107 -0.07102767 -0.19997269 0.07320383 -0.1363835
-0.1438504 0.07697372 -0.21062791 0.004856219 -0.21229829 0.032796804 -0.19302401 -0.21716031
-0.11643128 0.19341825 0.005789227 -0.17388041 -0.13626063 -0.106221184 0.09285568 -0.031856883
0.0821816 -0.0041850647 0.022918874 -0.20352222 -0.2532992 0.09953809 0.07299832 0.033038326
0.061187044 0.040998388 0.19618766 0.019806797 3.7033904e-05 -0.08613386 0.18170439 0.0782375
0.0076861847 0.23027888 -0.008393941 0.31057212 0.070926026 0.30546185 0.07012634 0.3665619
0.40798613 0.24591309 0.009535759 -0.11397167 -0.072321616 0.2620222 0.26119706 -0.12600042
0.24707709 0.035848077 0.040773693 0.25257972 0.34425652 0.22059229 0.10836117 -0.044839207
00000000: 796d 4ebe 6304 e9bc 8755 1c3e c550 3dbe
00000010: 0780 203d 1e37 e23c c723 ec3d a784 9f3d
00000020: 947d 8fbe f6c5 0ebe b158 5abe 8bcb 5fba
00000030: eff5 4f3e 6747 663d e9ab 3b3e 7e6a 223e
00000040: 2269 7dbd 40ba 90bd 0532 55bc f46d 5bbe
00000050: 995c 79be 24fd c23d 43f5 a2bc 2616 c9bc
00000060: e45a 50be 281e 123e 3692 47bd 37fa 9dbc
00000070: 02cc 023d 544a 4fbe 163f f2bd db9f 793d
00000080: 1388 55be 5e68 f33d bfe7 b3bd 3c19 4abe
00000090: cfbb 20be 8fb9 523e 2770 fcbd e750 7dbd
000000a0: 448d c93d ba68 023e ca98 1cbe dc70 ef3d
000000b0: 9e40 383d a90a febd 9722 473d b26c 4abe
000000c0: 2224 4ebe 6385 4ebe 719f 3e3d b6e2 febd
000000d0: 8ff9 d1bd 9afe 233e 3c02 0abe 5e3d 7fbd
000000e0: 7a3a 1cbe 3ecf 36be 3825 b73d 3620 a73d
000000f0: 0955 3cbe a9f2 59be 09ec 123c 8c12 12be
00000100: 23dc 3f3d b876 2a3e 7818 fbbc ac6b 703d
00000110: 210d c0bb b85c 28be b474 873d e7d5 953d
00000120: 7fea 92bd a882 813d edc0 4dbb 6cc7 e6bd
00000130: bc67 433e 0924 debd 8b48 07be 81c2 2a3e
00000140: 0939 1cbe d0a2 18be 4bf9 23be bcbe 703d
00000150: 3f7a 6abe 54e9 1b3e ec73 47be ec88 cabd
00000160: 04b8 4bbe fa94 763d 065d 2a3d 29e4 423d
00000170: 4032 413e fe26 063b 3c3d 61be 8c11 db3d
00000180: 0584 36be fb8b ab3b b1e6 40bd 0dec 143e
00000190: 9889 cbbb 947a 9dbd 79e6 d2bd c4f3 7f3d
000001a0: dc3d e2bc 8de2 603d 252c 51be 2b32 f1bd
000001b0: 7380 483e 1483 f2bd 9b13 313e 20d5 29be
000001c0: f510 4cbe 29b4 27be 2764 9c3d 3d8f 303e
000001d0: 35a9 c5bd ce51 393d 03fb d63c 70cb 51be
000001e0: 78cf 2ebd ddd3 3b3e af56 60bd d358 553e
000001f0: 28c9 4b3e 9e0d fdbd 3190 983e ae90 7f3e
00000200: 1910 9abc 9717 a73e 51a8 8d3e 0be1 063d
00000210: d48c 853d 1685 983d 2d47 d83d 8598 ab3e
00000220: fab0 ab3e 54df 2dbe 3f2e 473d a467 593e
00000230: f7ce 303e 8e8e 97bd 28b1 6f3e 625b 323e
00000240: 2e11 d73d d441 2a3e 4214 1f3e 8402 ac3e
00000250: ba1c be3e 3114 9d3e 7710 393e 8310 b43e
00000260: e1ef 973e 13ed c43d 6b86 b93e 4c11 ae3e
00000270: 9efc a13e 848f 243e 062f 95bd 97cf 423e
00000280: d742 95bd c652 be3e 655b ae3e 8464 b73b
00000290: c829 49bd 5772 9d3e 9589 0f3e c69a 823e
000002a0: a3a7 853e 3a7d a13d 91bd 473d baea 853c
000002b0: b226 bb3e 6798 9a3e 7c41 d83c f4fc ab3e
000002c0: 47b1 f73d 748f 933e db07 833e 6fd8 ab3d
000002d0: 1263 05bc fe1f 17be 9c63 ff3d 982a 393e
000002e0: 9c99 903c e8fc 2abd 5605 823e 9bc4 c5bd
000002f0: d2ec 943d 2cd2 82bd 4dc2 3abe d23f 17be
00000300: 503f 3f3d 8afb 3f3e 4c19 e8bc 5055 4a3e
00000310: f476 91bd a4c5 4cbe e4eb 953d 1ea8 0bbe
00000320: 854d 13be 66a4 9d3d d8ae 57be eb20 9f3b
00000330: b964 59be f155 063d 16a8 45be 465f 5ebe
00000340: 8673 eebd 6f0f 463e 8eb3 bd3b b50d 32be
00000350: e887 0bbe 7e8a d9bd 1e2b be3d 5d7c 02bd
00000360: d44e a83d de22 89bb 5dc0 bb3c 2168 50be
00000370: 6fb0 81be a0da cb3d 2580 953d 3253 073d
00000380: 449f 7a3d eded 273d 6be5 483e dd41 a23c
00000390: da54 1b38 f366 b0bd b710 3a3e fb3a a03d
000003a0: 64dc fb3b 3ace 6b3e be86 09bc 4f03 9f3e
000003b0: aa41 913d 7f65 9c3e 669e 8f3d 00ae bb3e
000003c0: 8fe3 d03e a4d0 7b3e df3b 1c3c fb69 e9bd
000003d0: 5b1d 94bd c627 863e 9fbb 853e 4106 01be
000003e0: c701 7d3e 6fd5 123d 5102 273d 2152 813e
000003f0: 6442 b03e f2e2 613e 76ec dd3d 51a9 37bd

actor.lin1.bias f4 [32]
0.12259335 0.09726615 -0.14928724 0.12912309 0.019415127 -0.17875253 -0.09862767 -0.022569258
0.21373336 -0.09542179 -0.0031313421 0.22919303 0.2908997 0.060571752 -0.028255777 -0.17941797
-0.18541421 -0.01973982 0.10637828 0.032113947 0.006867996 -0.09674307 0.15792437 0.11220859
0.21087803 -0.10535149 0.15765917 -0.036928277 -0.08362332 -0.12547207 0.29061642 0.20169733
00000000: 3912 fb3d 7a33 c73d c1de 18be d838 043e
00000010: 790c 9f3c e70a 37be 4efd c9bd 2ae3 b8bc
00000020: ebdc 5a3e 806c c3bd 3437 4dbb 94b1 6a3e
00000030: cef0 943e 161a 783d a978 e7bc 58b9 37be
00000040: 39dd 3dbe 67b5 a1bc dbdc d93d ea89 033d
00000050: ed0c e13b 3b21 c6bd edb6 213e 9ecd e53d
00000060: 69f0 573e 86c2 d7bd 6871 213e 1b42 17bd
00000070: b442 abbd c07b 00be adcb 943e bf89 4e3e

actor.lin2.weight f4 [32, 32]
-0.051519074 -0.12071886 -0.07501806 0.11006516 -0.06517596 -0.12720396 0.11067461 -0.11084211
0.08799924 0.1370809 -0.13591176 -0.14479896 -0.15402439 -0.11282355 -0.14037248 0.16037074
-0.13562506 -0.057707738 0.084339954 -0.14920208 0.12783472 0.14813499 0.13791785 0.13785586
-0.15673772 -0.14482999 -0.15195104 0.10072808 -0.061369687 0.070480146 0.027674165 0.0056610247
0.14438577 -0.0462356 -0.0459596 0.06471222 -0.06531404 -0.03337857 -0.032753162 0.073293924
-0.14117293 -0.14979403 0.06249238 0.08391948 -0.1599883 -0.0929481 -0.1044246 0.035066146
-0.036800798 -0.051831204 -0.025439082 0.14191076 -0.035857543 0.12363439 0.09772276 -0.097945236
0.12667139 -0.035413105 -0.108786315 -0.19505441 0.04446566 0.12715039 0.012420411 0.0024108319
-0.17250969 -0.15376441 -0.073566586 0.049785543 -0.16186103 -0.12449129 0.0035974456 -0.19481508
0.07281818 -0.15740956 0.159132 -0.06523256 0.0058550066 -0.07484395 -0.11303913 0.018549038
0.033288762 -0.090657614 -0.13448034 -0.080571875 0.092884906 -0.15834877 0.06203002 0.054063283
0.11385969 -0.0071211183 -0.16351561 -0.04956098 -0.11850541 0.06329898 -0.08444662 -0.14338239
0.014302115 -0.15260363 0.08574892 0.087610625 -0.1501844 -0.16120836 0.119080156 0.057084713
-0.21271588 0.037556846 -0.13376999 0.0684037 -0.1118996 -0.12108257 0.1455574 -0.054608174
0.058240477 -0.06957771 0.03319056 0.0690143 -0.18244693 -0.13254735 0.00693783 0.00913497
0.11966088 -0.06277027 -0.039106008 -0.114097364 -0.15966193 0.15002613 0.0152223045 0.04029351
-0.16430141 -0.10796081 -0.10198561 0.10501884 0.09070572 -0.02113826 -0.05904557 -0.005024605
-0.1507837 -0.119055465 0.11917065 -0.08054994 -0.13529302 0.18050446 0.07878676 0.16866374
-0.14667548 -0.14049672 -0.017938921 -0.13672963 0.18210454 -0.027269742 -0.11585643 0.038523443
0.13783349 -0.01218078 0.10736099 -0.013372522 -0.0030255958 0.020218778 -0.037351023 0.06735984
-0.120957054 0.0011141098 0.12157043 0.13511342 -0.15857558 -0.03732959 0.10242225 0.24809878
0.075762644 0.13018617 -0.15186252 0.33726847 0.28281307 -0.14670373 0.034543213 -0.18705687
-0.04400082 0.08610084 -0.13063292 0.109133765 0.3505195 0.14268632 0.059557322 0.22576736
0.34744015 0.020226235 -0.11471957 0.023370763 0.10722428 0.16576447 0.34076545 0.2275923
-0.16120605 -0.1073719 -0.16186339 -0.069333605 -0.033553928 -0.16216347 0.07302595 -0.13242088
-0.019591046 -0.051963985 -0.017650967 -0.103078045 0.09943979 -0.053093396 0.1646273 0.11304261
-0.056823436 -0.144426 0.11417346 -0.14832646 0.09525957 -0.037911594 0.15614045 0.018162973
-0.024163276 0.003805262 0.023178905 -0.016310347 0.11384178 -0.153916 -0.10310609 0.10641129
0.15839158 -0.17430702 0.0600813 -0.060220007 0.005485495 -0.14413303 0.034600306 0.014703008
0.1271305 -0.14117105 -0.17723195 0.033689577 -0.18008025 0.043301683 -0.07079296 -0.11184292
0.055235017 -0.17586173 -0.07116276 -0.034220185 0.15593626 -0.0071271793 -0.12257106 -0.1205397
-0.16223148 0.03736198 0.03571111 0.1535096 -0.17629832 -0.09060847 -0.15642184 0.046412803
00000000: aa05 53bd 733b f7bd 12a3 99bd d869 e13d
00000010: f97a 85bd c141 02be 5fa9 e23d 3001 e3bd
00000020: f238 b43d ef5e 0c3e 742c 0bbe 2e46 14be
00000030: 92b8 1dbe 0910 e7bd cebd 0fbe 3a38 243e
00000040: 4ce1 0abe f35e 6cbd 6dba ac3d 6ec8 18be
00000050: 1be7 023e b3b0 173e 563a 0d3e 162a 0d3e
00000060: da7f 20be 504e 14be 0e99 1bbe 864a ce3d
00000070: c85e 7bbd e557 903d eeb4 e23c 1e80 b93b
00000080: ddd9 133e 8a61 3dbd 2240 3cbd d787 843d
00000090: 5ec3 85bd f8b7 08bd 2e28 06bd 201b 963d
000000a0: a38f 10be 9b63 19be 03f8 7f3d fadd ab3d
000000b0: f9d3 23be 935b bebd 91dc d5bd 85a1 0f3d
000000c0: 6fbc 16bd f54c 54bd 9f65 d0bc 0e51 113e
000000d0: 5cdf 12bd 0734 fd3d df22 c83d 8397 c8bd
000000e0: 25b6 013e 550d 11bd 5ccb debd 58bc 47be
000000f0: a021 363d b633 023e fb7e 4b3c 0cff 1d3b
00000100: 61a6 30be 6b74 1dbe 14aa 96bd edeb 4b3d
00000110: e6be 25be 4af5 febd 1fc3 6b3b 9b7d 47be
00000120: b321 953d f92f 21be 80f3 223e a698 85bd
00000130: 5bdb bf3b c947 99bd 0f81 e7bd 27f4 973c
00000140: cc59 083d b3aa b9bd 37b5 09be de02 a5bd
00000150: 713a be3d 2e26 22be 3113 7e3d 7671 5d3d
00000160: 452f e93d 4558 e9bb a370 27be 7400 4bbd
00000170: f7b2 f2bd e5a2 813d 59f2 acbd d5d2 12be
00000180: 6b53 6a3c 2044 1cbe 219d af3d 336d b33d
00000190: f0c9 19be ce13 25be 4ce0 f33d a9d1 693d
000001a0: 31d2 59be 35d5 193d 00fb 08be 3d17 8c3d
000001b0: 9e2b e5bd 23fa f7bd 000d 153e d2ac 5fbd
000001c0: 918d 6e3d c27e 8ebd d3f2 073d 5f57 8d3d
000001d0: 5ed3 3abe 7eba 07be bc56 e33b d7aa 153c
000001e0: c310 f53d b38d 80bd 9f2d 20bd e1ab e9bd
000001f0: 6b7e 23be 73a0 193e f966 793c cf0a 253d
00000200: a13e 28be 8f1a ddbd d5dd d0bd 1e14 d73d
00000210: ecc3 b93d 252a adbc c5d9 71bd 71a5 a4bb
00000220: 0b67 1abe 5ad3 f3bd be0f f43d 5ef7 a4bd
00000230: 418a 0abe 29d6 383e f45a a13d 30b6 2c3e
00000240: 1932 16be 5fde 0fbe a5f4 92bc da02 0cbe
00000250: 9d79 3a3e cb64 dfbc 2346 edbd c2ca 1d3d
00000260: 3924 0d3e e591 47bc 14e0 db3d 6c18 5bbc
00000270: 1349 46bb daa1 a53c 63fd 18bd f5f3 893d
00000280: 55b8 f7bd 5207 923a ebf9 f83d 2c5b 0a3e
00000290: a361 22be eae6 18bd c2c2 d13d 9b0d 7e3e
000002a0: 7229 9b3d 864f 053e d981 1bbe 74ae ac3e
000002b0: e0cc 903e 8139 16be 2f7d 0d3d d68b 3fbe
000002c0: 343a 34bd a355 b03d a3c4 05be 8681 df3d
000002d0: 4b77 b33e 5d1c 123e 61f2 733d 8f2f 673e
000002e0: ade3 b13e 7db1 a53c 18f2 eabd 0b74 bf3c
000002f0: 6798 db3d 29be 293e cf78 ae3e f50d 693e
00000300: 3313 25be cce5 dbbd 84bf 25be c7fe 8dbd
00000310: d86f 09bd 2e0e 26be a18e 953d 5799 07be
00000320: 677d a0bc 30d8 54bd c398 90bc 951a d3bd
00000330: 17a7 cb3d 7678 59bd 0f94 283e e282 e73d
00000340: b1bf 68bd 69e4 13be c6d3 e93d e4e2 17be
00000350: 7317 c33d 3049 1bbd 48e3 1f3e 84ca 943c
00000360: 10f2 c5bc b461 793b b0e1 bd3c 479d 85bc
00000370: e125 e93d 289c 1dbe 4929 d3bd 2aee d93d
00000380: 6731 223e 8a7d 32be cf17 763d 41a9 76bd
00000390: abbf b33b 9c97 13be 0db9 0d3d e3e4 703c
000003a0: 7f2e 023e 258f 10be 4b7c 35be 15fe 093d
000003b0: f566 38be 1b5d 313d e6fb 90bd e70d e5bd
000003c0: 1d3e 623d 1915 34be c8bd 91bd 772a 0cbd
000003d0: c1ad 1f3e 1d8b e9bb 8906 fbbd 85dd f6bd
000003e0: 0220 26be e008 193d d045 123d 9f31 1d3e
000003f0: 8c87 34be ef90 b9bd 0c2d 20be 5a1b 3e3d

actor.lin2.bias f4 [32]
-0.05257742 0.12914212 -0.18515453 0.07906162 0.121112905 0.19712304 0.041379705 0.044310518
-0.088525236 0.017361615 0.10376051 -0.07053011 -0.064105205 0.15112545 -0.0822671 -0.18487932
0.13657354 -0.16663001 0.11425607 0.011483215 0.059424203 -0.010529083 -0.12311018 -0.061939035
-0.1458509 0.11590915 0.24245241 0.010989835 -0.14627022 0.2098493 -0.13063248 0.039820913
00000000: 6c5b 57bd d53d 043e 2699 3dbe 0feb a13d
00000010: 0b0a f83d 9fda 493e c47d 293d f27e 353d
00000020: b84c b5bd f239 8e3c 6480 d43d 1772 90bd
00000030: 9749 83bd a1c0 1a3e a77b a8bd 0151 3dbe
00000040: efd9 0b3e 0fa1 2abe 16ff e93d 1824 3c3c
00000050: cb66 733d 2d82 2cbc 3121 fcbd c9b3 7dbd
00000060: f059 15be c761 ed3d 7245 783e b50e 343c
00000070: dcc7 15be bce2 563e 85c4 05be 411b 233d

actor.lin3.weight f4 [1, 32]
-0.08904219 -0.15611257 0.1706831 -0.08238225 0.058767505 0.30391207 -0.100635245 0.10784795
0.12094847 -0.010155877 0.27995348 -0.015058313 0.12711948 0.22492243 -0.13754825 -0.16016136
-0.04022565 0.081479445 -0.0031694998 -0.04218307 -0.08583891 0.016818214 0.09993173 -0.1022574
0.09545026 0.09126597 0.26242152 0.07094908 -0.079344355 0.326011 -0.11588448 -0.09728313
00000000: c05b b6bd f9db 1fbe 8dc7 2e3e 06b8 a8bd
00000010: 32b6 703d 5d9a 9b3e da19 cebd 63df dc3d
00000020: d5b3 f73d d664 26bc 1056 8f3e 24b7 76bc
00000030: 9c2b 023e 1152 663e 73d9 0cbe 5701 24be
00000040: a7c3 24bd b2de a63d 62b7 4fbb 28c8 2cbd
00000050: 4fcc afbd 5ac6 893c 02a9 cc3d 546c d1bd
00000060: 6d7b c33d a7e9 ba3d 1d5c 863e c04d 913d
00000070: 4b7f a2bd eaea a63e d854 edbd 613c c7bd

critic.conv1.weight f4 [21, 21]
-0.32402313 -0.35845685 -0.35795847 0.34391683 0.31879604 -0.12022498 -0.12949958 -0.23806868
-0.26749158 -0.051342968 0.033188205 -0.12771234 -0.25073722 -0.04744107 -0.32416457 -0.056001868
0.009738989 -0.13957517 0.3670041 -0.3510833 -0.12916932 -0.14642029 -0.1125784 -0.18543574
-0.16471218 -0.30919406 0.28988528 0.27049845 -0.19056161 0.25114268 -0.04350421 0.38744858
0.23685169 -0.1745162 -0.056602176 -0.2775094 0.27099493 -0.0396843 -0.071497515 0.32147312
0.027672175 0.029806092 0.30928186 0.20973963 -0.2902117 0.3496599 0.23795518 -0.24183676
-0.15990324 -0.0552268 0.21191414 0.13716726 -0.33349952 0.15318045 -0.05437644 -0.0005248736
-0.35806206 -0.35601348 0.15256478 0.17134012 -0.1154032 -0.24885547 -0.056059454 -0.12350326
0.38234392 0.08375235 -0.18516423 -0.026056385 -0.3421743 -0.045121353 -0.2668406 0.0063823587
-0.056863375 -0.23951182 -0.21447864 -0.029692717 -0.263786 -0.073700346 0.07857491 -0.22934648
-0.16519432 -0.39652887 -0.21382615 0.16803075 -0.13483287 0.21919727 0.28426307 -0.062796906
0.23634844 -0.26788053 -0.36649525 -0.099030055 0.37610537 0.35445407 0.12718453 0.18898383
-0.26008454 -0.19116746 0.12660399 -0.33822373 -0.194731 -0.16509718 0.21264368 -0.0920307
-0.2082733 -0.14112867 0.06565441 0.34046575 -0.24136448 -0.35938638 -0.12054784 0.24071613
-0.32341442 0.21532987 -0.19431862 -0.14280671 -0.22129834 -0.30903873 -0.37153307 -0.36324513
-0.18858524 0.019456655 0.07401457 0.028730432 0.04516366 0.0860348 0.14651848 -0.18148078
0.35897 0.2491486 -0.068016656 -0.04097179 0.10078899 0.003146727 0.16315506 -0.06600676
-0.17460474 -0.016674962 -0.02825815 -0.24633062 -0.003031667 -0.28166333 0.14583938 -0.35741755
0.36416802 0.29034895 -0.15371965 0.21687214 0.32218614 0.031235127 -0.039191753 0.07179522
0.07211771 -0.068901695 -0.29121372 -0.18404795 0.19050688 0.31795934 -0.2000241 0.010973761
0.2796687 0.057168014 0.0430682 -0.3585264 -0.08378245 0.024048448 -0.18960722 -0.11210494
-0.3986233 0.33579218 0.06581753 -0.2643526 0.3433137 0.10842368 0.06882641 -0.020599011
0.24646448 -0.015546962 -0.16955683 0.3195254 0.18112354 0.047058236 -0.42101446 0.06211149
0.035138365 0.07303886 -0.29454246 0.22933175 0.2902743 -0.09529039 0.046730123 0.19804937
0.07345742 -0.056064222 -0.36868823 -0.37320253 -0.009424277 0.032735635 -0.11865139 -0.28403458
0.07485756 0.06931409 0.33115962 0.22725585 -0.19459853 0.0073791337 0.071720995 0.18971366
-0.2026465 0.3573015 -0.21522997 0.27965268 -0.23883705 0.015932567 -0.06768375 -0.15713803
-0.0499569 0.34778777 -0.07465797 0.005808497 -0.1888787 -0.21859463 -0.030576438 0.3354888
0.27822965 -0.2573141 -0.266015 0.27589357 0.044232577 0.21795803 0.11053095 0.098371916
-0.22046395 0.3117928 0.010288717 0.236455 -0.012469461 -0.28635374 -0.1447353 -0.29928127
0.22468822 0.013149538 -0.3068011 0.34774324 0.33133444 0.08755497 -0.22365035 -0.36393744
-0.18264183 0.00698867 -0.22230193 -0.10686023 0.10168249 0.054733474 -0.33958706 0.076046824
00000000: 5ce6 a5be a887 b7be 5546 b7be de15 b03e
00000010: 3c39 a33e 8438 f6bd 8a9b 04be 47c8 73be
00000020: a8f4 88be 014d 52bd 5bf0 073d 06c7 02be
00000030: a160 80be 9151 42bd e6f8 a5be 3762 65bd
00000040: 4890 1f3c cbec 0ebe f6e7 bb3e 31c1 b3be
00000050: f644 04be 33ef 15be 818f e6bd dee2 3dbe
00000060: 4faa 28be af4e 9ebe d86b 943e c67e 8a3e
00000070: 9522 43be c695 803e 7831 32bd a95f c63e
00000080: 4089 723e 60b4 32be afd7 67bd b615 8ebe
00000090: d9bf 8a3e 018c 22bd 4a6d 92bd 2098 a43e
000000a0: c2b0 e23c e82b f43c 315a 9e3e fcc5 563e
000000b0: a196 94be 9f06 b33e 86aa 733e 0ea4 77be
000000c0: adbd 23be 7f35 62bd 0500 593e 9375 0c3e
000000d0: 73c0 aabe 56db 1c3e d4b9 5ebd ac97 09ba
000000e0: e953 b7be 6647 b6be f139 1c3e c973 2f3e
000000f0: 8358 ecbd f8d3 7ebe 999e 65bd 47ef fcbd
00000100: 95c2 c33e 5a86 ab3d b19b 3dbe 3374 d5bc
00000110: 7831 afbe 2bd1 38bd 559f 88be 1b23 d13b
00000120: 92e9 68bd 9642 75be 4aa0 5bbe 243e f3bc
00000130: f50e 87be 35f0 96bd e2eb a03d ced9 6abe
00000140: b328 29be d505 cbbe 3ef5 5abe 4110 2c3e
00000150: a111 0abe 4075 603e ee8a 913e aa9b 80bd
00000160: 5305 723e a327 89be 44a5 bbbe 45d0 cabd
00000170: e290 c03e 017b b53e a93c 023e fa84 413e
00000180: cd29 85be 67c1 43be 7aa4 013e a92b adbe
00000190: 9067 47be 3c0f 29be 44bf 593e 977a bcbd
000001a0: 9945 55be 0984 10be d275 863d 8751 ae3e
000001b0: 4028 77be 7e01 b8be c9e1 f6bd 4a7e 763e
000001c0: 9396 a5be 6f7f 5c3e 76fb 46be ec3b 12be
000001d0: 089c 62be 533a 9ebe 9539 bebe 44fb b9be
000001e0: 7d1c 41be 9063 9f3c f394 973d 155c eb3c
000001f0: 88fd 383d 0333 b03d f108 163e 19d6 39be
00000200: eaca b73e d020 7f3e 514c 8bbd 09d2 27bd
00000210: 756a ce3d 5239 4e3b 1f12 273e 8d2e 87bd
00000220: 96cb 32be ee99 88bc a37d e7bc 183e 7cbe
00000230: efae 46bb 2d36 90be eb56 153e 6fff b6be
00000240: 3b74 ba3e 9ea8 943e af68 1dbe bb13 5e3e
00000250: 95f5 a43e cfe0 ff3c 8887 20bd 5f09 933d
00000260: 73b2 933d 551c 8dbd f719 95be 1177 3cbe
00000270: 3c14 433e 91cb a23e 1ed3 4cbe 4acb 333c
00000280: bc30 8f3e 0229 6a3d 4868 303d c690 b7be
00000290: 2296 abbd 4001 c53c 6528 42be 4697 e5bd
000002a0: 5a18 ccbe f4ec ab3e 57cb 863d 3959 87be
000002b0: d0c6 af3e 3c0d de3d dcf4 8c3d 42bf a8bc
000002c0: 2f61 7c3e afb8 7ebc 4ea0 2dbe d598 a33e
000002d0: 7378 393e 23c0 403d 358f d7be 9e68 7e3d
000002e0: 3fed 0f3d 6695 953d 45ce 96be f1d5 6a3e
000002f0: d59e 943e 9c27 c3bd 1668 3f3d 74cd 4a3e
00000300: d870 963d 99a3 65bd b4c4 bcbe 6714 bfbe
00000310: 4868 1abc cd15 063d 80ff f2bd fb6c 91be
00000320: ec4e 993d 8cf4 8d3d c18d a93e c2b5 683e
00000330: d644 47be a9cc f13b 75e2 923d 4c44 423e
00000340: 9082 4fbe 39f0 b63e 3f65 5cbe a32e 8f3e
00000350: b391 74be 0485 823c c79d 8abd cbe8 20be
00000360: 9b9f 4cbd 3d11 b23e 47e6 98bd 3455 be3b
00000370: 6b69 41be 45d7 5fbe 707b fabc 30c5 ab3e
00000380: 1e74 8e3e acbe 83be 1e33 88be ec41 8d3e
00000390: 382d 353d 6430 5f3e 0d5e e23d 3777 c93d
000003a0: 4dc1 61be 4ea3 9f3e 0292 283c 4221 723e
000003b0: b64c 4cbc f59c 92be 7e35 14be 653b 99be
000003c0: ab14 663e 2971 573c 0915 9dbe 670b b23e
000003d0: aba4 a93e 0550 b33d 9904 65be 0256 babe
000003e0: 7606 3bbe 3701 e53b 1ea3 63be 89d9 dabd
000003f0: e93e d03d 3530 603d 5bde adbe 70be 9b3d

critic.conv1.bias f4 [21]
0.14671648 0.17678757 -0.01670449 0.1480725 -0.1156581 0.07538129 0.0 0.0
-0.13460565 0.16828106 0.12542549 0.0152719775 0.1444763 -0.12930879 -0.11334369 0.0
-0.027518783 0.0 -0.11957181 0.0 -0.15045486
00000000: d83c 163e cd07 353e dbd7 88bc 51a0 173e
00000010: 27de ecbd 8161 9a3d 0000 0000 0000 0000
00000020: 10d6 09be df51 2c3e 8a6f 003e 5137 7a3c
00000030: 98f1 133e 8669 04be bd20 e8bd 0000 0000
00000040: 126f e1bc 0000 0000 11e2 f4bd 0000 0000
00000050: d710 1abe

critic.lin1.weight f4 [32, 21]
-0.13384287 0.14908916 -0.12054844 -0.06383039 0.1491033 -0.062313303 0.112053044 0.16269746
-0.13320507 -0.15176563 -0.036647 -0.093105495 0.19044633 0.10321521 -0.04441197 -0.16018797
0.03767748 0.03961149 -0.19712973 0.14835 -0.18256882 0.041782707 -0.03836444 -0.13947122
-0.10055271 -0.13316403 -0.06957465 -0.1578133 -0.16558595 0.20547448 -0.004919172 0.18520726
0.075809404 0.1449676 0.07288467 -0.17296505 -0.029479574 0.107177675 0.02327343 -0.14450963
-0.03470165 -0.10662665 0.014584471 0.07742664 -0.14047949 -0.18039605 -0.04322325 0.19421968
-0.0038481986 0.08637077 -0.17289902 0.118724756 -0.21713202 0.017843448 -0.0137909725 -0.12071722
0.07262414 -0.004084608 0.0948971 0.09148037 0.08468386 -0.0027094404 -0.13072446 -0.09023418
-0.19276285 -0.06609556 0.038668383 -0.21027966 0.1252449 -0.12910496 -0.16389894 -0.19242336
-0.09645432 -0.037385993 0.035153635 -0.04801499 0.02176532 0.19945224 -0.1492412 0.059002876
0.030792506 0.049321473 0.14350483 -0.20073381 -0.202906 0.12518752 0.05277124 0.12998538
0.16555004 -0.0468577 -0.14629771 0.1361994 -0.18035734 0.109373815 -0.048443697 -0.17760856
0.04713568 0.21526587 -0.040677987 -0.044262428 -0.05333636 -0.01578976 -0.16391125 -0.04494648
-0.20245443 0.24261183 0.04444279 -0.13145413 0.061933707 -0.23020019 0.1331953 -0.022364749
0.07477085 0.09367377 0.108090356 0.19754048 0.092386276 0.23091778 -0.03322852 0.20646617
0.12954502 -0.16056556 0.031234944 -0.012656611 -0.07232478 0.020869775 0.25553295 0.21202406
0.09552055 0.1472848 0.13984266 -0.047843028 0.008849105 -0.19477728 0.17818373 0.11832106
0.17662136 0.101789884 -0.07631995 0.16290045 -0.054829773 0.13877596 0.055443794 0.06319428
0.021430941 -0.0006577346 0.0039320947 -0.19272432 0.14653243 -0.11714734 0.038206264 0.17604643
-0.042703617 -0.104854845 -0.0293471 0.1469301 0.09546484 0.058722235 -0.2200191 -0.18436989
0.07495237 0.14904827 -0.2067303 0.23068318 0.20001385 0.0030550607 0.17217638 0.05719459
-0.26836196 -0.10035826 -0.20472819 -0.2258038 -0.20292518 0.10395014 -0.21266589 -0.08016265
0.15512621 0.022887971 0.038234167 -0.20379625 0.030269835 -0.03048505 0.16916059 0.17405184
-0.08064945 0.1947537 0.2527369 -0.09710547 0.14656255 -0.20939189 -0.0443404 0.1416577
-0.1918625 0.210211 0.14662293 0.021495355 0.03459775 -0.14532515 -0.15535335 -0.022167329
0.059767425 -0.2274281 0.14323811 0.02451425 -0.02291568 -0.11464146 0.22190319 0.029857399
0.1916558 0.03600879 0.16387947 0.15977676 -0.18210238 -0.030865578 -0.17318752 -0.028077519
-0.191475 0.14286391 -0.12738326 0.00051249395 -0.08501127 -0.11546579 0.18761787 -0.19868723
-0.1858955 -0.18069229 0.134368 0.2102523 -0.177511 -0.10495041 0.07749124 0.18696289
-0.06725149 -0.22194028 -0.08271611 0.16337463 0.20045212 0.040954303 -0.14847283 0.1569377
0.21039207 -0.04763874 0.07527032 0.037449665 0.030484699 -0.09557831 -0.04346509 -0.005252762
-0.08611986 0.08253136 0.028285407 -0.08656666 0.18125737 0.24451023 0.20708005 -0.063722044
00000000: 1b0e 09be d4aa 183e 1ae2 f6bd 82b9 82bd
00000010: 89ae 183e 3c3c 7fbd 117c e53d 2a9a 263e
00000020: e966 08be 7368 1bbe 2a1b 16bd 18ae bebd
00000030: 5d04 433e 7f62 d33d 53e9 35bd 5108 24be
00000040: b453 1a3d a83f 223d 60dc 49be 10e9 173e
00000050: 52f3 3abe 5824 2b3d 0824 1dbd 8bd1 0ebe
00000060: 94ee cdbd 275c 08be 277d 8ebd cf99 21be
00000070: 5d8f 29be e767 523e 0131 a1bb f9a6 3d3e
00000080: f641 9b3d 6372 143e 8f44 953d c01d 31be
00000090: 267f f1bc f87f db3d eca7 be3c 55fa 13be
000000a0: 5123 0ebd 135f dabd b4f3 6e3c dc91 9e3d
000000b0: dbd9 0fbe beb9 38be dd0a 31bd 86e1 463e
000000c0: 0f32 7cbb 29e3 b03d 710c 31be f725 f33d
000000d0: db57 5ebe 6c2c 923c 88f3 61bc 973a f7bd
000000e0: f7bb 943d 2dd8 85bb 6959 c23d 0f5a bb3d
000000f0: bb6e ad3d de90 31bb a2dc 05be b3cc b8bd
00000100: a063 45be 1c5d 87bd bd62 1e3d 8d53 57be
00000110: 3340 003e 1734 04be 20d5 27be a10a 45be
00000120: d889 c5bd 0e22 19bd 42fd 0f3d 5eab 44bd
00000130: 2f4d b23c 353d 4c3e afd2 18be 00ad 713d
00000140: 9140 fc3c 5005 4a3d eef2 123e 2a8d 4dbe
00000150: 97c6 4fbe 2831 003e a826 583d e31a 053e
00000160: f385 293e dced 3fbd 11cf 15be db77 0b3e
00000170: 98af 38be 61ff df3d e66c 46bd 05df 35be
00000180: 5811 413d a86e 5c3e f69d 26bd 854c 35bd
00000190: 3a77 5abd 8759 81bc 5ad8 27be cd19 38bd
000001a0: 3750 4fbe 3c6f 783e a509 363d e99b 06be
000001b0: 33ae 7d3d 99b9 6bbe 5964 083e 4736 b7bc
000001c0: 7621 993d 09d8 bf3d 7a5e dd3d 0d48 4a3e
000001d0: 0435 bd3d b675 6c3e a11a 08bd de6b 533e
000001e0: 73a7 043e 4c6b 24be 6de0 ff3c ad5d 4fbc
000001f0: 041f 94bd 17f7 aa3c 37d5 823e d61c 593e
00000200: 47a0 c33d d4d1 163e ea32 0f3e 0df7 43bd
00000210: d6fb 103c b273 47be cc75 363e 5052 f23d
00000220: 3bdc 343e 3777 d03d a24d 9cbd 60cf 263e
00000230: 2f95 60bd 491b 0e3e 0819 633d 016c 813d
00000240: f18f af3c d26b 2cba cdd8 803b 8659 45be
00000250: 990c 163e f2ea efbd 2c7e 1c3d 8445 343e
00000260: fde9 2ebd 23be d6bd 5469 f0bc d874 163e
00000270: 1283 c33d ba86 703d b04c 61be 76cb 3cbe
00000280: a180 993d 1ca0 183e 1cb1 53be 3638 6c3e
00000290: 6ed0 4c3e 6a37 483b 014f 303e e044 6a3d
000002a0: bd66 89be a288 cdbd 44a4 51be 1d39 67be
000002b0: 9ecb 4fbe d0e3 d43d 16c5 59be 512c a4bd
000002c0: 68d9 1e3e 8e7f bb3c 6e9b 1c3d f7af 50be
000002d0: 72f8 f73c c9bb f9bc 6f38 2d3e a53a 323e
000002e0: 8a2b a5bd 846d 473e bb66 813e 3cdf c6bd
000002f0: 7e14 163e d46a 56be 479e 35bd b70e 113e
00000300: 9a77 44be 8d41 573e 5224 163e 0717 b03c
00000310: 5fb6 0d3d 1ed0 14be f314 1fbe 4298 b5bc
00000320: b0ce 743d e9e2 68be 03ad 123e 1cd2 c83c
00000330: aab9 bbbc 24c9 eabd 973a 633e 8197 f43c
00000340: 6b41 443e f47d 133d 05d0 273e 859c 233e
00000350: 0c79 3abe cfd9 fcbc 1258 31be d302 e6bc
00000360: 0612 44be eb4a 123e c270 02be e358 063a
00000370: 641a aebd 5479 ecbd e61e 403e aa74 4bbe
00000380: 645b 3ebe 6607 39be c497 093e 614c 573e
00000390: 72c5 35be 3ef0 d6bd bab3 9e3d 3373 3f3e
000003a0: 26bb 89bd 5044 63be 1067 a9bd ae4b 273e
000003b0: 5243 4d3e b3bf 273d 4309 18be 47b4 203e
000003c0: 0571 573e d720 43bd 5327 9a3d d264 193d
000003d0: 0cbb f93c 90be c3bd 7308 32bd 5d1f acbb
000003e0: 9c5f b0bd 3406 a93d ccb6 e73c dc49 b1bd
000003f0: 889b 393e e460 7a3e cb0c 543e b480 82bd

critic.lin1.bias f4 [32]
0.18764894 -0.18709959 -0.11411359 0.051092766 -0.05445089 0.22707134 0.2100517 -0.15302321
-0.16220453 -0.074849635 -0.20614158 -0.062940545 0.0361022 0.089237265 -0.0030016105 -0.071970746
0.107256204 -0.17751512 -0.14222547 0.11915634 -0.2807852 -0.15785922 0.07140668 -0.012453704
0.02694017 0.003230603 0.05524226 0.054983623 -0.022251949 -0.11451145 -0.0896289 -0.10663064
00000000: 0b27 403e 0997 3fbe 63b4 e9bd a646 513d
00000010: e507 5fbd 6485 683e cb17 573e 1eb2 1cbe
00000020: f218 26be c44a 99bd c716 53be f9e6 80bd
00000030: e7df 133d 07c2 b63d abb6 44bb 6665 93bd
00000040: 24a9 db3d 86c6 35be 8ea3 11be 3d08 f43d
00000050: 14c3 8fbe d9a5 21be aa3d 923d 9f0a 4cbc
00000060: a2b1 dc3c 86b8 533b b545 623d 8236 613d
00000070: b849 b6bc fb84 eabd 5b8f b7bd 2a61 dabd

critic.lin2.weight f4 [32, 32]
0.13727449 -0.00082483486 -0.17670105 0.1345926 -0.055015817 0.14877288 -0.08669059 -0.14059903
-0.0572634 -0.012732663 0.14121027 -0.03204029 0.027844192 0.15505326 -0.087599844 -0.09127341
-0.07936441 0.15137063 -0.05751002 0.11848946 -0.11883299 0.03078865 -0.15378314 0.12711452
0.07300211 -0.008701828 0.030799367 0.0025017436 0.08422312 0.0868671 0.013932007 0.091083765
-0.06303021 -0.17472029 0.00585753 -0.15240231 -0.1403777 -0.0003064854 0.05100876 0.16308127
-0.013491356 0.1934729 0.09209263 -0.14161363 0.10306769 -0.13575521 -0.1121791 0.025097989
-0.11151 0.13514155 0.07502205 0.08749492 0.0122387875 0.008195728 -0.04747462 0.15891793
-0.029784942 -0.032681465 -0.0869684 -0.01739304 0.15701722 0.16867393 0.20131534 -0.11145565
-0.12288821 0.12224875 -0.14761338 -0.14196822 0.028583635 -0.027393378 0.068182625 -0.07707089
-0.040888745 0.16738927 -0.064098716 -0.06319905 0.021289589 -0.06966299 -0.108687684 -0.08946148
-0.11154973 -0.046853382 -0.112086006 -0.11841308 0.102239266 -0.04068117 0.13129343 0.1381382
0.010852196 0.003145103 0.16308132 -0.025378987 -0.09480473 0.13196406 -0.053651582 -0.16505204
0.10340661 -0.026630485 -0.14148793 -0.175785 0.15682566 -0.025085945 -0.104370005 0.15618084
0.052502953 0.052107 0.13158195 0.109552875 -0.07063433 0.034184866 0.044039074 -0.15148523
-0.07854839 0.07665502 0.04394501 -0.03004594 0.18346304 -0.032072444 -0.06994879 0.16259219
0.13661753 -0.0108823795 0.08868783 -0.18091844 0.023241034 0.022493709 0.2576069 0.10466615
0.06780156 -0.06768914 0.07827122 0.122836165 0.13870148 0.15598157 0.15131749 -0.06966601
-0.022672802 -0.14744337 -0.0054668253 -0.045820903 -0.11510236 -0.08586257 0.081524886 -0.05376229
-0.054825738 -0.061926328 -0.021455565 -0.019023106 0.11221635 0.0029968726 0.058956213 -0.12047808
-0.0132620325 0.08322778 -0.08584434 -0.014358748 -0.05445807 0.10319851 0.10914412 0.08316792
0.023613172 -0.0779609 -0.040920332 0.17655466 0.087315775 0.08291987 -0.14625746 -0.031317573
-0.023538487 -0.071823455 0.14107417 0.06295211 0.015023118 -0.05113323 -0.17372301 0.044178348
-0.16790396 -0.03183442 -0.11222576 -0.06375431 0.08902946 -0.088790216 -0.048910175 0.12047101
-0.09478169 -0.038681112 -0.039275404 0.17350514 -0.13518052 0.12511027 -0.13462181 -0.101163454
0.15440135 -0.0067500914 -0.10073819 -0.111614734 0.15289058 0.107859515 -0.11071493 0.09741036
0.065322354 0.19515263 -0.1705583 0.0236646 -0.098399475 -0.07904511 0.0939503 0.16140011
0.12472093 0.12535912 0.0037971004 -0.024749873 -0.07235825 0.15062442 0.048602507 -0.0026807555
0.11490612 0.13660105 0.13234317 -0.08793608 -0.14641474 -0.12392958 0.00023272037 -0.1532747
-0.045867298 0.16849656 -0.050881654 -0.08414856 -0.14105164 0.14041911 0.15847301 0.10591705
0.09689468 -0.043159757 0.0606777 0.016312223 -0.07964389 0.07953273 -0.09003495 0.16128235
0.11572444 -0.18237795 0.049841307 -0.021182774 -0.15606152 -0.060477607 -0.14617531 -0.101425596
0.03936119 0.12677182 0.16921093 -0.18227684 0.0687623 -0.1399836 0.11353718 0.053697407
00000000: af91 0c3e bb39 58ba 1ff1 34be a4d2 093e
00000010: 4458 61bd eb57 183e d68a b1bd 31f9 0fbe
00000020: 078d 6abd a99c 50bc 6d99 103e ae3c 03bd
00000030: 8119 e43c 48c6 1e3e 8c67 b3bd 8eed babd
00000040: cf89 a2bd e700 1b3e a08f 6bbd 9aaa f23d
00000050: b65e f3bd 7b38 fc3c 5479 1dbe 4f2a 023e
00000060: 2182 953d 1d92 0ebc f44e fc3c 4bf4 233b
00000070: 2c7d ac3d 61e7 b13d 1343 643c 208a ba3d
00000080: fc15 81bd e0e9 32be 86f0 bf3b 5a0f 1cbe
00000090: 2cbf 0fbe c6af a0b9 90ee 503d c7fe 263e
000000a0: d90a 5dbc c31d 463e 109b bc3d 2a03 11be
000000b0: 2715 d33d 6a03 0bbe 28be e5bd 4c9a cd3c
000000c0: 5b5f e4bd 8c62 0a3e 29a5 993d 8930 b33d
000000d0: 3285 483c 6047 063c bf74 42bd 62bb 223e
000000e0: 8dff f3bc 00dd 05bd 7d1c b2bd d97b 8ebc
000000f0: 1fc9 203e dcb8 2c3e 9c25 4e3e dc42 e4bd
00000100: d0ac fbbd 8d5d fa3d f627 17be 1e60 11be
00000110: 3a28 ea3c 1468 e0bc 55a3 8b3d 58d7 9dbd
00000120: f57a 27bd 1868 2b3e 3046 83bd 816e 81bd
00000130: 8167 ae3c 78ab 8ebd a697 debd 9537 b7bd
00000140: 2f74 e4bd 55e9 3fbd 598d e5bd 8f82 f2bd
00000150: d262 d13d 4ca1 26bd c971 063e 1a74 0d3e
00000160: 69cd 313c 131e 4e3b cafe 263e 98e7 cfbc
00000170: fb28 c2bd 9621 073e c3c1 5bbd 6703 29be
00000180: d8c6 d33d 2d28 dabc 36e2 10be fc00 34be
00000190: e896 203e 0a81 cdbc f1bf d5bd dfed 1f3e
000001a0: 560d 573d 266e 553d 6bbd 063e 425d e03d
000001b0: bba8 90bd 6e05 0c3d 5162 343d f21e 1bbe
000001c0: fadd a0bd 4ffd 9c3d afff 333d e722 f6bc
000001d0: bcdd 3b3e 655e 03bd 5041 8fbd 917e 263e
000001e0: 77e5 0b3e 024c 32bc f7a1 b53d af42 39be
000001f0: fb63 be3c ba44 b83c 0de5 833e 355b d63d
00000200: 8bdb 8a3d 9ba0 8abd a94c a03d 8791 fb3d
00000210: c307 0e3e a2b9 1f3e f9f2 1a3e 0ead 8ebd
00000220: 50bc b9bc 65fb 16be 0e23 b3bb b3ae 3bbd
00000230: c9ba ebbd b7d8 afbd 85f6 a63d d935 5cbd
00000240: f490 60bd 76a6 7dbd 95c3 afbc 58d6 9bbc
00000250: b0d1 e53d 2e67 443b 127c 713d 36bd f6bd
00000260: ff48 59bc 5473 aa3d 28cf afbd f440 6bbc
00000270: 6d0f 5fbd be59 d33d f486 df3d f153 aa3d
00000280: 6970 c13c f7a9 9fbd 149c 27bd bfca 343e
00000290: 9dd2 b23d e5d1 a93d 84c4 15be db46 00bd
000002a0: c9d3 c0bc 2d18 93bd bf75 103e 09ed 803d
000002b0: 8623 763c 1471 51bd 72e4 31be 5bf4 343d
000002c0: 04ef 2bbe cf64 02bd 9fd6 e5bd 9f91 82bd
000002d0: 1455 b63d a5d7 b5bd 0956 48bd 81b9 f63d
000002e0: e71c c2bd 1670 1ebd 3fdf 20bd 55ab 313e
000002f0: c36c 0abe e81c 003e 4dda 09be c92e cfbd
00000300: 631b 1e3e df2f ddbb d34f cebd 4496 e4bd
00000310: 598f 1c3e 73e5 dc3d 82be e2bd 157f c73d
00000320: bac7 853d 17d6 473e d6a6 2ebe 43dc c13c
00000330: aa85 c9bd 67e2 a1bd 0469 c03d 1246 253e
00000340: b06d ff3d 245e 003e c6d8 783b 3fc0 cabc
00000350: 9030 94bd 4a3d 1a3e 6c13 473d 9daf 2fbb
00000360: e653 eb3d 25e1 0b3e f884 073e d517 b4bd
00000370: bfed 15be cbce fdbd 6606 7439 0bf4 1cbe
00000380: 59df 3bbd 5d8a 2c3e 4869 50bd 1556 acbd
00000390: d76f 10be 07ca 0f3e c046 223e 0aeb d83d
000003a0: b870 c63d 49c8 30bd 2e89 783d 36a1 853c
000003b0: 561c a3bd 0ee2 a23d 3e64 b8bd 3327 253e
000003c0: ef00 ed3d 49c1 3abe 6626 4c3d 7f87 adbc
000003d0: 97ce 1fbe 5eb7 77bd fbae 15be 39b8 cfbd
000003e0: 3339 213d 79d0 013e a145 2d3e c8a6 3abe
000003f0: 40d3 8c3d dc57 0fbe 2e86 e83d d0f1 5b3d

critic.lin2.bias f4 [32]
-0.079387076 -0.22568184 -0.15195966 -0.06684091 -0.050706238 0.08778554 -0.23036529 -0.1460028
0.23179284 0.17680305 0.03266364 0.028127678 -0.09528911 0.0076628188 -0.13002741 -0.06402155
0.1540301 0.27040073 0.3441051 0.13360997 0.05023872 0.0050235037 0.07335959 0.022295289
-0.06654108 0.2550556 0.14994155 -0.2813245 0.18766177 0.02754642 -0.17054763 -0.23861316
00000000: b195 a2bd 2419 67be 509b 1bbe e3e3 88bd
00000010: 58b1 4fbd e8c8 b33d e1e4 6bbe c281 15be
00000020: 1a5b 6d3e dc0b 353e 4fca 053d 046c e63c
00000030: f026 c3bd 6218 fb3b e825 05be bb1d 83bd
00000040: 11ba 1d3e f771 8a3e 8b2e b03e 0dd1 083e
00000050: 1ec7 4d3d 349c a43b 8d3d 963d 9ca4 b63c
00000060: b146 88bd a696 823e 478a 193e c409 90be
00000070: 682a 403e 08a9 e13c 0aa4 2ebe 0257 74be

critic.lin3.weight f4 [1, 32]
-0.16665275 0.15608431 0.06790279 0.14906213 -0.14513555 -0.16547695 -0.00059154455 0.038772605
-0.03607223 -0.11303047 -0.09931177 0.0053162486 -0.06002691 0.02329342 0.06745504 -0.0038560783
-0.10975348 -0.05799057 -0.38500986 -0.09068614 0.10291665 0.14478791 -0.31072444 -0.08793091
0.03292086 -0.07749256 0.052680906 0.08398658 -0.14269878 -0.12491489 0.10766039 0.058970373
00000000: 05a7 2abe 91d4 1f3e 9e10 8b3d bea3 183e
00000010: 6a9e 14be ca72 29be e211 1bba 06d0 1e3d
00000020: 7ac0 13bd 857c e7bd f863 cbbd ed33 ae3b
00000030: c7de 75bd d8d1 be3c de25 8a3d 42b6 7cbb
00000040: 6fc6 e0bd 8587 6dbd 0320 c5be a8b9 b9bd
00000050: f7c5 d23d 4843 143e 4617 9fbe 1f15 b4bd
00000060: 06d8 063d 6bb4 9ebd efc7 573d 2801 ac3d
00000070: a11f 12be 61d3 ffbd 0d7d dc3d eb8a 713d

exp_avg f4 [21, 21]
0.0 -0.0046718633 0.0 6e-45 -0.007164624 -0.0049665575 -0.0037488614 0.0
0.0 -0.008861365 0.0 0.0003623126 0.0 6e-45 -0.005331364 -0.004940056
0.0 -0.003753741 -0.0037589695 2.293e-42 -0.0030598459 0.0 -0.006901535 0.0
6e-45 -0.010146344 -0.007138378 -0.005201085 0.0 0.0 -0.013059737 0.0
0.00037247562 0.0 6e-45 -0.0074237464 -0.0069414647 0.0 -0.0054260376 -0.0054108477
4.571e-42 -0.0043715863 0.0 -0.014079493 0.0 6e-45 -0.020581044 -0.014563809
-0.010510797 0.0 0.0 -0.025995582 0.0 0.00039445757 0.0 6e-45
-0.015336609 -0.013700246 0.0 -0.010760373 -0.010813192 2.557e-42 -0.008794973 0.0
-0.006302538 0.0 6e-45 -0.0092409775 -0.0065248315 -0.0047774347 0.0 0.0
-0.011833685 0.0 0.00036792693 0.0 6e-45 -0.0068595223 -0.0063912706 0.0
-0.004888597 -0.004915998 2.31e-42 -0.0038077415 0.0 -0.005724762 0.0 6e-45
-0.008489162 -0.0059657455 -0.0043840855 0.0 0.0 -0.010763754 0.0 0.00036278582
0.0 6e-45 -0.0062970184 -0.0058250898 0.0 -0.0044789617 -0.0044952156 2.314e-42
-0.003571868 0.0 -0.0042952728 0.0 6e-45 -0.0065312423 -0.0045413584 -0.0034201515
0.0 0.0 -0.008184484 0.0 0.0003621498 0.0 6e-45 -0.0048450707
-0.00456095 0.0 -0.003447933 -0.0034542212 2.301e-42 -0.0027475357 0.0 -0.0056257905
0.0 6e-45 -0.008528274 -0.0059441756 -0.0044439156 0.0 0.0 -0.010582935
0.0 0.0003623126 0.0 6e-45 -0.0063640797 -0.0058365273 0.0 -0.0044561094
-0.004471779 2.293e-42 -0.0036208339 0.0 -0.0052144257 0.0 6e-45 -0.007946213
-0.005524686 -0.004146317 0.0 0.0 -0.009842295 0.0 0.0003623126 0.0
6e-45 -0.0059228265 -0.0054517374 0.0 -0.004155725 -0.0041664834 2.293e-42 -0.0033859673
0.0 -0.004504031 0.0 6e-45 -0.0069060046 -0.004786656 -0.0036147807 0.0
0.0 -0.008556306 0.0 0.0003623126 0.0 6e-45 -0.0051345443 -0.0047735777
0.0 -0.0036237347 -0.0036279496 2.293e-42 -0.002946044 0.0 -0.0046481867 0.0
6e-45 -0.0071279034 -0.0049410444 -0.0037294663 0.0 0.0 -0.008818668 0.0
0.0003623126 0.0 6e-45 -0.0053037694 -0.0049172514 0.0 -0.0037351516 -0.0037405828
2.293e-42 -0.0030425903 0.0 -0.004779243 0.0 6e-45 -0.0073239477 -0.005078808
-0.0038303623 0.0 0.0 -0.009056862 0.0 0.0003623126 0.0 6e-45
-0.0054507493 -0.0050424393 0.0 -0.0038356846 -0.0038410854 2.293e-42 -0.0031304762 0.0
-0.033110984 0.0 6e-45 -0.045167346 -0.0328432 -0.022411348 0.0 0.0
-0.0606523 0.0 0.0002186734 0.0 6e-45 -0.033233844 -0.030138874 0.0
-0.024178233 -0.024365231 1.721e-42 -0.018630238 0.0 -0.035028126 0.0 6e-45
00000000: 0000 0000 6e16 99bb 0000 0000 0400 0000
00000010: 39c5 eabb 81be a2bb 75af 75bb 0000 0000
00000020: 0000 0000 422f 11bc 0000 0000 c6f4 bd39
00000030: 0000 0000 0400 0000 b9b2 aebb 31e0 a1bb
00000040: 0000 0000 5301 76bb 0b59 76bb 6406 0000
00000050: b287 48bb 0000 0000 4626 e2bb 0000 0000
00000060: 0400 0000 da3c 26bc 0ee9 e9bb dd6d aabb
00000070: 0000 0000 0000 0000 82f8 55bc 0000 0000
00000080: d548 c339 0000 0000 0400 0000 e642 f3bb
00000090: 3a75 e3bb 0000 0000 e7cc b1bb 7b4d b1bb
000000a0: be0c 0000 863f 8fbb 0000 0000 acad 66bc
000000b0: 0000 0000 0400 0000 9499 a8bc 0b9d 6ebc
000000c0: 7a35 2cbc 0000 0000 0000 0000 b0f4 d4bc
000000d0: 0000 0000 33cf ce39 0000 0000 0400 0000
000000e0: 6746 7bbc ff76 60bc 0000 0000 474c 30bc
000000f0: d129 31bc 2107 0000 ca18 10bc 0000 0000
00000100: 8585 cebb 0000 0000 0400 0000 7867 17bc
00000110: 41ce d5bb 078c 9cbb 0000 0000 0000 0000
00000120: 13e2 41bc 0000 0000 51e6 c039 0000 0000
00000130: 0400 0000 d8c5 e0bb dd6d d1bb 0000 0000
00000140: 8630 a0bb 6116 a1bb 7006 0000 4d8b 79bb
00000150: 0000 0000 c996 bbbb 0000 0000 0400 0000
00000160: 2016 0bbc 4d7c c3bb 60a8 8fbb 0000 0000
00000170: 0000 0000 755a 30bc 0000 0000 4a34 be39
00000180: 0000 0000 0400 0000 3857 cebb 65e0 bebb
00000190: 0000 0000 41c4 92bb 9a4c 93bb 7306 0000
000001a0: 0016 6abb 0000 0000 5cbf 8cbb 0000 0000
000001b0: 0400 0000 0804 d6bb adcf 94bb 9f24 60bb
000001c0: 0000 0000 0000 0000 3718 06bc 0000 0000
000001d0: ecde bd39 0000 0000 0400 0000 66c3 9ebb
000001e0: 0674 95bb 0000 0000 b7f6 61bb 3760 62bb
000001f0: 6a06 0000 0010 34bb 0000 0000 8d58 b8bb
00000200: 0000 0000 0400 0000 2cba 0bbc 5cc7 c2bb
00000210: 449e 91bb 0000 0000 0000 0000 0c64 2dbc
00000220: 0000 0000 c6f4 bd39 0000 0000 0400 0000
00000230: c589 d0bb 5740 bfbb 0000 0000 8e04 92bb
00000240: 0088 92bb 6406 0000 834b 6dbb 0000 0000
00000250: c6dd aabb 0000 0000 0400 0000 d530 02bc
00000260: 6d08 b5bb d4dd 87bb 0000 0000 0000 0000
00000270: 9441 21bc 0000 0000 c6f4 bd39 0000 0000
00000280: 0400 0000 4514 c2bb 7da4 b2bb 0000 0000
00000290: bf2c 88bb ff86 88bb 6406 0000 1be7 5dbb
000002a0: 0000 0000 8d96 93bb 0000 0000 0400 0000
000002b0: c44b e2bb 61d9 9cbb f5e5 6cbb 0000 0000
000002c0: 0000 0000 c02f 0cbc 0000 0000 c6f4 bd39
000002d0: 0000 0000 0400 0000 ae3f a8bb ac6b 9cbb
000002e0: 0000 0000 2e7c 6dbb e5c2 6dbb 6406 0000
000002f0: 6b12 41bb 0000 0000 d14f 98bb 0000 0000
00000300: 0400 0000 3091 e9bb 7ce8 a1bb 106a 74bb
00000310: 0000 0000 0000 0000 2d7c 10bc 0000 0000
00000320: c6f4 bd39 0000 0000 0400 0000 3ecb adbb
00000330: e520 a1bb 0000 0000 72c9 74bb 9124 75bb
00000340: 6406 0000 3266 47bb 0000 0000 329b 9cbb
00000350: 0000 0000 0400 0000 bafd efbb 216c a6bb
00000360: d106 7bbb 0000 0000 0000 0000 3c63 14bc
00000370: 0000 0000 c6f4 bd39 0000 0000 0400 0000
00000380: 339c b2bb 0c3b a5bb 0000 0000 1c60 7bbb
00000390: b8ba 7bbb 6406 0000 ad28 4dbb 0000 0000
000003a0: 629f 07bd 0000 0000 0400 0000 6501 39bd
000003b0: 9786 06bd 0198 b7bc 0000 0000 0000 0000
000003c0: 8c6e 78bd 0000 0000 b24b 6539 0000 0000
000003d0: 0400 0000 3620 08bd cde5 f6bc 0000 0000
000003e0: 6e11 c6bc 9899 c7bc cc04 0000 719e 98bc
000003f0: 0000 0000 a779 0fbd 0000 0000 0400 0000
